output/dqn/2023-12-24_09-51-52/model/CartPole-v1_dqn_100000_2023-12-24_09-51-52.pth (torch, 8230 bytes, 6 tensors)

fc1.weight f4 [32, 4]
00000000: 8e8c 8abc 7abe e43e 6c0a 9fc1 3f63 0fc0
00000010: 6a51 66be f6b8 f9bd e9ea bbbf e51e ccbe
00000020: 7ea2 1bbe 3b02 61bd 9ab5 a4c1 ec79 2bc0
00000030: 74f5 8d3e 9f37 3bbe dc97 c4bf eaed bebe
00000040: 1f2a ac3d ef26 d73d 7eaa cebe ad40 55bd
00000050: f122 cf3d dd42 e33e b809 623f eb16 533f
00000060: 26e2 ebbc 405b 97bc e95e dbc0 c387 69bf
00000070: a1bb ae3e 3c45 c9bd 6948 303c 99dc d5be
00000080: 060d 00bf 4157 40bf 3da5 2341 a466 33c0
00000090: 95fe 6f3e b6d1 6cbe 450f 7742 618a 5e40
000000a0: 16c0 e8bc 773f d03c 60aa c13e b795 5c3c
000000b0: 4593 24c0 e897 59c0 0485 05c1 218f 5cc0
000000c0: 996d e6bd 56f2 873e 31e7 2341 02dc 623f
000000d0: 43bf 033b 15bf bc3c 3945 5741 b7dd e83f
000000e0: 3de6 95bf 889c 93bf c100 bac0 4f9f 32c0
000000f0: 5ba8 4ebe 97f8 e23e 0e7c 4a3f c2dc 493f
00000100: 7207 36bf 00a2 44bf 7f05 9b41 772f 7240
00000110: e558 dabc cd9f d03e bb72 843f 9878 2e3f
00000120: bb68 543c 41df cfbd 3816 0e41 8606 e33e
00000130: 7845 2d3e d10e 803c e3f4 ed40 abfa 333f
00000140: 99e9 2a3b 7e2c 433e 94ee 003f bf4b b03e
00000150: 9835 333e d5ea c5bd f4e1 cbc0 f4e6 7840
00000160: 7b9d cdbf d59a cabf 8146 2440 a6b1 9540
00000170: 424f 8a3f f161 713f 70ca 1441 66ab 113f
00000180: aa1c aebb 14cc ee3c 5b6f 5c41 5772 c23f
00000190: 957d f9bc a7fe 6abd 827a 1bc2 0e96 60c0
000001a0: 084b 933c 231d 563d f46a 553f 69b1 b23d
000001b0: f7c4 503e 2057 c33c 8946 00c0 a560 b8bc
000001c0: 5f76 8fbb 76ec 99bc 7a3b 9541 7aa7 bf3f
000001d0: c4f5 6e3d 40c6 1ebe fb77 c7be c4e8 85be
000001e0: 5c02 8bbd 1798 4ebc c52b bfc1 9e2d fcbf
000001f0: 1655 a63c 7f77 b23d f629 7ac2 989b 55c0
-0.016912725 0.44676572 -19.880089 -2.2404325 -0.22491995 -0.121934816 -1.4681064 -0.3986732
-0.15198705 -0.054933768 -20.588673 -2.6793165 0.27726328 -0.18282937 -1.5358844 -0.3729089
0.084064715 0.10505473 -0.4036445 -0.052063633 0.101140864 0.4438695 0.8829608 0.82456845
-0.02879436 -0.018476129 -6.8553357 -0.9122278 0.34127524 -0.098276585 0.010759451 -0.41769865
-0.5001987 -0.7513314 10.227841 -2.8031397 0.23436959 -0.23126873 61.76491 3.477196
-0.028411906 0.025420887 0.37825298 0.013463429 -2.5714886 -3.3998966 -8.3449745 -3.446236
-0.11251373 0.26552075 10.243943 0.88616955 0.0020103015 0.023040334 13.4544 1.8192662
-1.1710888 -1.1532145 -5.812592 -2.7909734 -0.2018141 0.44330284 0.7909554 0.78852475
-0.7110511 -0.7680969 19.377684 3.784147 -0.026653716 0.40746918 1.0347513 0.6815276
0.012964423 -0.10150004 8.8804245 0.44340914 0.16921031 0.015632065 7.4361434 0.70304364
0.0026079176 0.19059941 0.5036404 0.3443279 0.17500913 -0.09663931 -6.371332 3.8890963
-1.6063684 -1.5828501 2.5668032 4.6779356 1.0805438 0.9429007 9.299423 0.5690216
-0.0053134756 0.029150046 13.777186 1.5191144 -0.03045539 -0.05737176 -38.869637 -3.5091586
0.017980114 0.05227388 0.8336632 0.087252446 0.20387636 0.023845255 -2.0043051 -0.022507021
-0.0043781246 -0.018789511 18.654041 1.4972985 0.05833985 -0.15505314 -0.38958725 -0.2615415
-0.067875594 -0.012609503 -23.896372 -1.9701421 0.020304244 0.08714198 -62.540977 -3.3376217

fc1.bias f4 [32]
00000000: b882 cfc0 7250 b5bf 96e2 a5c0 fc48 ccbf
00000010: 973b 82bf 4640 06c0 abd1 aebf 5cff d8bf
00000020: 723d 4841 ac21 4a41 50c3 2ebe e7ec 7c3e
00000030: ee4b 97c0 7f99 74c0 863a a041 a34c 0cc0
00000040: 4bea 4f41 885e f7bf d65a c13f 683c f83f
00000050: eb48 66bf a277 2441 5491 8d41 af26 db40
00000060: cfbc 43c0 76e9 1d41 bf03 05bf 840b 88bf
00000070: 1d6a 61c0 05fd 32bf 525b ac40 04df 5041
-6.484707 -1.4165175 -5.1839094 -1.5959773 -1.0174435 -2.097673 -1.3657736 -1.695293
12.515001 12.633221 -0.17066693 0.24699746 -4.7280188 -3.8218687 20.028576 -2.1921775
12.9947 -1.9325724 1.5105846 1.9393435 -0.89955014 10.279207 17.695961 6.848472
-3.058399 9.869497 -0.5195884 -1.0628514 -3.5221016 -0.6991733 5.3861475 13.054447

fc2.weight f4 [32, 32]
00000000: 1fba 83c0 278e 86c0 7b7d f8c0 7535 8440
00000010: 64a1 7c3d 404e bdbf 5d50 923f e1c6 5a3e
00000020: 97b0 acbe ad65 c43f 003a dac0 c128 8abf
00000030: 4730 3ec1 537a c4c0 a8c6 2ac0 e550 fac0
00000040: e344 c840 8e6d 23c1 920f a3c0 4e7a 1540
00000050: 2517 28c0 07ca c4bd 3719 e3bf 65d4 84c0
00000060: 6ca9 5a40 c0fa 8fc1 7413 92c0 e77a 693d
00000070: 6b8c 3541 25be 61c0 e70a 7b3f 032a 3040
00000080: ef3f 1fbe 8c38 e0be 4ca4 57c0 10a5 b2be
00000090: 0c6e b63e 989a 0b3f c574 c2bf 68ff ad3f
000000a0: eb34 2abf 69fe bd3e b30c 72c0 3d4c e4be
000000b0: 36db 8bc0 987d 1bc0 3b53 96be aa36 24c0
000000c0: e78c 25bf 50de 44be cce8 9f3f 30d8 dac0
000000d0: 3a4d c9c0 dff6 353f 3d4d febf a83f ccbf
000000e0: 11ae ab3e 7bfe 0ac1 5fc3 b0c0 f373 b43f
000000f0: ad5c 36c1 66e4 efbe 8b3e 573e 0fab 223f
00000100: 7179 8d40 a4da 16c0 07c4 0dc1 6411 9bc0
00000110: 44f8 da40 46d6 3940 7ba7 1341 cf78 173f
00000120: 9e1a 9940 d980 4b40 aa15 a940 e9f0 dfc1
00000130: 5eed 87c1 33f4 02c1 3635 a83f 4fa2 4ac1
00000140: 8888 2a40 2719 9840 46e7 0cbe bf3a c2c1
00000150: a208 e7c1 dbe4 73c0 31c2 90c1 203c ab40
00000160: 2efb 5ac1 d55a 76c1 aa22 fac0 85be cc3e
00000170: a2fd a73e 3854 0bc2 aef2 bdbf eac0 e73f
00000180: 2db4 a140 358e ce3f f93e 19c1 575d 7cc1
00000190: 4b16 4040 2dfa 633f d8e3 ee3f ad6a 4840
000001a0: 722c 9840 3c40 a0c0 4a5b cdc0 01f1 6ac1
000001b0: 71d3 fcc1 3d0b f1c1 556c d83f 278d fdc0
000001c0: 7aa8 35c1 6dc8 d040 7d49 ff3f 438d 8ac1
000001d0: 72b8 35c1 f82d 1640 6abd 37c1 c878 9d40
000001e0: 5352 1bc1 ea3d 0bc2 65a2 25c2 b58e cf3f
000001f0: c601 7740 db77 c3c1 10a4 83c0 f171 9a40
00000200: 1126 efc1 c3a5 44bf 0839 9fc1 b288 a33f
00000210: b350 7441 6ecd ebbf a9bb 8a3f 6d63 b6bd
00000220: 9a9f 37c1 4f57 0641 94ab 0ac1 2df5 1dc0
00000230: 112d a540 49b1 1ac1 1d7a a23f f7c3 f640
00000240: e0c5 aac0 4c8d a63f aa57 0ec2 b2a4 9ac0
00000250: c506 fcc0 dc95 1a41 2293 9240 44ab cdc0
00000260: 2619 84bf bf6e 4d41 f637 1841 5b85 0b40
00000270: ff2d 5c40 1b59 2dc1 0f71 7fc1 b620 8ec1
00000280: f5b7 1dbe 4a5e 5cbe fd56 11be 30f4 f3bd
00000290: 6232 ebbc d260 58be fd9e b6bd 9d9a e83c
000002a0: 8730 d9bd 4243 173d ba76 743d 1cf9 41bd
000002b0: 2549 623d 5fc7 3fbc 0cce 4bbd b857 973b
000002c0: 55e7 b7bd 3f50 d5bc ac14 ffbd dcc4 36bd
000002d0: bafe e6bd ccae b93c f8bb a53d 9463 cabd
000002e0: ace7 4cbd 5a07 533c ce94 acbc 3636 37be
000002f0: 6708 a4bd c593 a63d dad7 d2bc 2596 993a
00000300: 753e 9e40 a8fe 52c2 f1a5 d6c0 1ed4 4ebf
00000310: 3c0c 9d40 6778 88bf eca0 e340 9407 41bf
00000320: c95c 133f 4acc d540 b667 72c0 fdc1 6b3e
00000330: f11d a7c1 528d 38c2 7aa0 5f40 71ef 0cc1
00000340: c591 d5c0 e9b6 dd40 a3b5 c2c2 f5e7 92c0
00000350: 6219 9d3e a8ad bd3f 89c5 6dc0 da5f 18c1
00000360: 1843 1042 73b3 0742 d774 fcc1 9d20 e33f
00000370: 80ff a33f 837e 86c2 5ba0 91c2 9e8b 91c0
00000380: ad75 08bf f0d4 fe3f 9c45 b3bf 4030 77bc
00000390: b1ec a53f c85d 12c1 ec4c 9fbf c785 6b3f
000003a0: 02c9 6cc0 2d64 ecc0 61aa c640 a1dd 763f
000003b0: f3c7 eac0 b81e cbc0 81ab b7be c2b4 453f
000003c0: 47b7 c8bf a53f 5dc0 3451 0f40 da6e 26c1
000003d0: 17a0 c9c0 b452 0dc1 9fd3 e63e 4512 b2c0
000003e0: ed84 b33e 1b2f aec0 abb2 933f 99c8 d43c
000003f0: 8f66 cebf 9d08 ffc1 abef 07bf 63f1 cdbe
-4.11647 -4.2048526 -7.7653174 4.1315255 0.06167735 -1.4789505 1.1430775 0.21364929
-0.33728477 1.5343529 -6.81958 -1.0793687 -11.886786 -6.139932 -2.668375 -7.822375
6.258409 -10.214247 -5.0956507 2.33559 -2.6264126 -0.09608846 -1.774207 -4.150927
3.4165907 -17.997437 -4.5648746 0.057001974 11.346782 -3.5272305 0.9806351 2.7525642
-0.15551732 -0.43793142 -3.369403 -0.34891558 0.35630834 0.54532766 -1.5191885 1.3593569
-0.66486996 0.37108162 -3.782025 -0.44589415 -4.370509 -2.4295406 -0.29360375 -2.5658364
-0.64668125 -0.1922543 1.2492919 -6.83889 -6.290677 0.7107982 -1.9867321 -1.5956926
0.3353124 -8.687129 -5.523849 1.4097885 -11.397626 -0.46853942 0.21019952 0.63542265
4.4210744 -2.3570948 -8.860358 -4.845873 6.842806 2.9037032 9.228389 0.59168714
4.784499 3.1797392 5.2838945 -27.992632 -16.990902 -8.184619 1.3141239 -12.664626
2.6645832 4.7530704 -0.13760099 -24.278685 -28.879215 -3.8108432 -18.09482 5.3510895
-13.686323 -15.397176 -7.8167315 0.39989105 0.32810694 -34.832245 -1.4839685 1.8105748
5.053244 1.6137148 -9.577874 -15.772788 3.0013607 0.8905361 1.8663282 3.131511
4.7554255 -5.007841 -6.4173937 -14.683839 -31.603243 -30.130487 1.690806 -7.9234805
-11.353632 6.524466 1.9944302 -17.318975 -11.357531 2.3465557 -11.483744 4.920994
-9.707599 -34.810463 -41.40859 1.6215426 3.8594832 -24.433523 -4.113777 4.826409
-29.893587 -0.7681543 -19.902847 1.2776091 15.269702 -1.8422067 1.0838519 -0.08905683
-11.476465 8.396316 -8.666889 -2.4680893 5.1617513 -9.6682825 1.2693516 7.7114215
-5.3366547 1.301187 -35.58561 -4.8326044 -7.8758264 9.661587 4.5804605 -6.4271564
-1.0320175 12.839538 9.513662 2.1800144 3.4403074 -10.834254 -15.965102 -17.765972
-0.15402205 -0.21520343 -0.1419334 -0.119118094 -0.028710548 -0.21130684 -0.08917043 0.028394038
-0.10604959 0.036929376 0.05968354 -0.04735671 0.055245537 -0.011705249 -0.04975705 0.004618611
-0.0897967 -0.02603924 -0.12455115 -0.044621333 -0.11279054 0.022666357 0.08092493 -0.09882274
-0.050025627 0.012880171 -0.02106705 -0.17891774 -0.08009415 0.081336536 -0.025737692 0.001171772
4.945124 -52.748688 -6.7077565 -0.80792415 4.9077435 -1.0661744 7.113394 -0.7540219
0.57563454 6.6811876 -3.78758 0.2302322 -20.88962 -46.13801 3.4941697 -8.808457
-6.674044 6.928578 -97.35476 -4.590815 0.30683428 1.4818621 -3.7151816 -9.523401
36.06552 33.925243 -31.55705 1.7744328 1.2812347 -67.24709 -72.813194 -4.548293
-0.5330456 1.9908733 -1.4005618 -0.015087187 1.2962857 -9.147896 -1.244535 0.92001003
-3.6997685 -7.3872285 6.208298 0.9643193 -7.336908 -6.3475 -0.35873035 0.7722894
-1.5680932 -3.4570096 2.2393312 -10.402063 -6.300792 -8.832691 0.4508333 -5.56473
0.35062352 -5.44325 1.15389 0.025974559 -1.6125048 -31.879206 -0.5310008 -0.40223226

fc2.bias f4 [32]
00000000: 6db0 9c3f 755a 223e 59ca 8240 9c7f 8e40
00000010: 085e fd40 db54 27bd e2e1 a640 e741 833f
00000020: e72b 9a3f 3cff 03bf 99fb ce3f 9dcd a240
00000030: ecfc 0d40 fee4 7f41 34a5 ea40 3cb8 ca3f
00000040: dd5f 68bc 1ea3 8d40 4047 90be ff7a 0040
00000050: 5a2d d93f f33e 07be 1d8c 73bf 5d44 1a40
00000060: 78bd e540 9897 e93f 93f4 e83f f442 dc3f
00000070: b64a 51be 25ef 303e 31ac 0abf 8eae d2bf
1.2241341 0.15854819 4.0872006 4.4530773 7.9177284 -0.04085241 5.2150736 1.0254487
1.2044648 -0.5156133 1.6170532 5.0875993 2.2185621 15.993406 7.3326664 1.5837474
-0.014183012 4.426162 -0.2817936 2.007507 1.6966965 -0.13207607 -0.9513567 2.4104226
7.1793785 1.8249388 1.8199638 1.7207932 -0.20438656 0.17278726 -0.54168993 -1.645952

fc3.weight f4 [2, 32]
00000000: dfef bb40 df52 6141 7502 6141 f2fb 6041
00000010: 31ef 87c0 d2c9 133c 72b1 4640 d9af b9bf
00000020: b8b8 adc0 8b2d 4f3f 4f36 00c1 fc15 d7c0
00000030: 9c47 6241 52a2 08c0 c165 02c0 f917 acc0
00000040: c1c8 a141 c429 0d41 4cbe cd41 3bab 86c0
00000050: 2b83 29c1 8fb6 c8c0 5fea b6bf e49b d141
00000060: 6aca ad40 d639 c1c1 10a1 20c1 5c50 0840
00000070: 0053 b640 d299 01c1 840a ac41 efba 5941
00000080: e71b 14c0 42e6 8bbf 9e0e 9a41 f6e2 8041
00000090: 64bb d43c a9ff 0cbb 52da 50c0 9aae 99c0
000000a0: 55f3 40c1 14f6 82c1 21ae 17c1 1be7 8fbf
000000b0: 9e3a 8641 730e f9c0 7060 85bf 83cb bdc0
000000c0: 9afe b441 4eb8 cf40 a14d d641 ebc5 f7c0
000000d0: 6986 46c1 7ad9 8ebe 3b6d e53f d1bc d341
000000e0: 057d 3640 2063 0540 aab0 2fc1 4b0d 743f
000000f0: bd8e 4b40 682d e1c0 5f68 4941 9df7 7241
5.873031 14.082732 14.0631 14.06151 -4.247948 0.009020286 3.1045804 -1.450679
-5.4287987 0.8092887 -8.013259 -6.7214336 14.142483 -2.1349072 -2.0374606 -5.3779263
20.223024 8.822697 25.717918 -4.208402 -10.594523 -6.272285 -1.4290274 26.201118
5.4309587 -24.15324 -10.039322 2.1299047 5.697632 -8.100054 21.505135 13.608138
-2.314203 -1.0929644 19.257137 16.11082 0.025968261 -0.002151469 -3.2633252 -4.8025637
-12.059407 -16.370155 -9.480012 -1.1242403 16.778622 -7.783014 -1.0420055 -5.9310927
22.624317 6.491248 26.787905 -7.74291 -12.407815 -0.27900296 1.792396 26.467196
2.8513806 2.084175 -10.980631 0.95332783 3.180587 -7.0367928 12.587981 15.185452

fc3.bias f4 [2]
00000000: 7be8 f9c0 0904 eec0
-7.809629 -7.4379926
