output/dqn/2023-12-24_15-32-05/model/CartPole-v0_dqn_20000_2023-12-24_15-32-05.pth (torch, 8220 bytes, 6 tensors)

fc1.weight f4 [32, 4]
0	0x3e6f6246	0.23377332
1	0xbe6108fe	-0.21976086
2	0x408b070d	4.3446107
3	0x3e541ffb	0.20715325
4	0x3d9c3963	0.07628133
5	0xbf07c72b	-0.5303828
6	0x409ebf31	4.960839
7	0x3ebadcd4	0.36496603
8	0xbecf017c	-0.4043082
9	0xbeca6569	-0.39530495
10	0xc052ba4e	-3.2926211
11	0xbf7ee823	-0.9957296
12	0x3f2ab03f	0.6667518
13	0xbf231e64	-0.6371825
14	0xc0b2860d	-5.5788636
15	0xc002e68d	-2.0453217
16	0xbf8e27a0	-1.1105843
17	0x3f104ccd	0.5636719
18	0x40e0d824	7.0263844
19	0x3f347bcf	0.70501417
20	0xbe5d61cd	-0.2161934
21	0xbe40c5ef	-0.18825506
22	0xc0511ace	-3.267261
23	0xbf0c2503	-0.54743975
24	0xbf956954	-1.1672769
25	0xbfc728cc	-1.5559325
26	0xc00e4453	-2.2229202
27	0xbfb0eb67	-1.3821839
28	0x3e9c32a9	0.305074
29	0x3f5af971	0.8553687
30	0x3fe7abed	1.8099343
31	0x3fbed31c	1.4908175
32	0xbdb29f96	-0.08721845
33	0xbd8317d6	-0.06401031
34	0x4094f091	4.654366
35	0x3e67c6ed	0.22634478
36	0x3ef1e433	0.47244415
37	0x3ea11bcc	0.3146652
38	0x3fff3ba2	1.9940073
39	0x3eda4a4c	0.4263481
40	0xbe8449f3	-0.2583767
41	0xbea55ea9	-0.32298782
42	0xc1378978	-11.471062
43	0xbfb7223d	-1.4307324
44	0x3d90e29c	0.07074472
45	0xbe68beae	-0.22728989
46	0xc11241d5	-9.141072
47	0xbfaaaf43	-1.3334736
48	0x3eb69f41	0.35668376
49	0x3e4a2466	0.19740447
50	0xc0b45b69	-5.6361585
51	0x3cc84508	0.02444698
52	0x3eaf07b1	0.34185556
53	0xbea5c247	-0.32374784
54	0xc05f4a26	-3.4889007
55	0xbf23425c	-0.6377313
56	0xbec2832a	-0.37990695
57	0xbf02ffa1	-0.5117131
58	0xbf7f45e5	-0.99716026
59	0xbecf4100	-0.4047928
60	0xbf83dce5	-1.0301787
61	0x3f8b271c	1.087131
62	0x4065f584	3.59311
63	0x3f9c780b	1.2224134
64	0xbde16e65	-0.11007384
65	0xbe832b51	-0.25618985
66	0xc0bfd77a	-5.9950533
67	0xbfbae2c0	-1.4600449
68	0xbe4321df	-0.1905589
69	0xbe11d249	-0.14240374
70	0x410fe8f4	8.994373
71	0x3f1d905b	0.61548394
72	0x3d78b3c2	0.060718305
73	0xbdfe390a	-0.12413223
74	0x4096903b	4.7051063
75	0x3eba75bf	0.36417958
76	0xbe15d04f	-0.14630245
77	0xbcd2c332	-0.025727842
78	0x414cec2b	12.807658
79	0x3fd10e8b	1.6332563
80	0x3ea570c8	0.32312608
81	0xbf1470a8	-0.579844
82	0xbff0b70c	-1.8805861
83	0xbf4cf07a	-0.8005444
84	0xbf672ef8	-0.90306044
85	0x3ee266db	0.44219097
86	0x4078746a	3.8821054
87	0x3f2ed8c3	0.682995
88	0x3da5f8c3	0.08104088
89	0x3cb2d7df	0.021831451
90	0xc086b1f9	-4.209225
91	0xbeb77199	-0.35828856
92	0x3dc90075	0.0981454
93	0xbc1e9fdd	-0.009681669
94	0xc13cbd07	-11.796149
95	0xbf98c083	-1.193375
96	0xbe48e184	-0.19617277
97	0xbdc26300	-0.09491539
98	0xc0bf216d	-5.9728303
99	0xbf280119	-0.65626675
100	0xbe8c6f6f	-0.27428767
101	0x3bf33412	0.0074219787
102	0x400b39bf	2.1753995
103	0x3f202aba	0.62565196
104	0x4007d9b1	2.1226618
105	0xbeb2964b	-0.3488029
106	0x3f391819	0.72302395
107	0xbe916735	-0.28399053
108	0x3f02bd6f	0.510703
109	0xbf4ae9e6	-0.7926315
110	0x3eb1c4a8	0.3472035
111	0xbf9dc340	-1.232521
112	0xbed6c9d1	-0.4195085
113	0xbe259d96	-0.16173396
114	0xbf82ab41	-1.0208513
115	0x3f3b4bf9	0.731628
116	0xbdb8f16a	-0.09030421
117	0x3df55dbb	0.11980768
118	0x3ff98381	1.9493257
119	0x3e544aff	0.20731734
120	0xbddb6403	-0.10712435
121	0x3f1ab0f9	0.6042629
122	0x40415dfc	3.0213614
123	0x3f605f18	0.876451
124	0x3f2f05ae	0.6836804
125	0x3f88feb4	1.0702729
126	0x409037a0	4.50679
127	0x3f80421b	1.0020174

fc1.bias f4 [32]
0	0x3f98121c	1.1880527
1	0x4039f5d9	2.9056304
2	0x3e4e5775	0.2015055
3	0x406c37e6	3.6909118
4	0x3fd30928	1.6487169
5	0x3f6ad145	0.9172557
6	0x3fd3c213	1.6543602
7	0x402d5bf1	2.7087367
8	0x3f6814dd	0.90656835
9	0x3f64723e	0.8923682
10	0xc037b5de	-2.8704753
11	0x40140a16	2.3131156
12	0xc029cbed	-2.6530716
13	0x3f9ca63c	1.2238231
14	0xbe7163d1	-0.23573233
15	0x3fe24214	1.7676415
16	0xc01a99f3	-2.4156463
17	0x400445e4	2.0667658
18	0x3f6f7ee4	0.93552995
19	0x4088dd77	4.2770343
20	0x3fb7b064	1.4350705
21	0x3fd95a72	1.6980727
22	0x3f9e3df2	1.2362654
23	0x403bd10a	2.9346337
24	0x3fda9281	1.707596
25	0x3f8f9aba	1.1219094
26	0x3de27787	0.11057954
27	0x3fee9cc3	1.864159
28	0x401f5a92	2.489903
29	0xbf5b939d	-0.85772115
30	0x3f7ab38d	0.9793022
31	0x3fb502f3	1.4141525

fc2.weight f4 [32, 32]
0	0xbf48e961	-0.7848111
1	0xc018ed82	-2.3894963
2	0xbe71d689	-0.23616995
3	0xbfa2f834	-1.2731996
4	0x3ec2b15b	0.38025936
5	0xbecdc1ab	-0.4018682
6	0xbd16fed0	-0.036864102
7	0xbdb4c576	-0.08826725
8	0x3dbe5baa	0.09294827
9	0xbdfd2315	-0.12360207
10	0xbd59c1a2	-0.05316318
11	0x3e5d029f	0.21583031
12	0x3e4eebae	0.20207092
13	0x3ef7a289	0.48366192
14	0xbe45d562	-0.1931968
15	0x3f18e6b8	0.5972705
16	0xbda098bf	-0.07841634
17	0xbe30f6de	-0.17281672
18	0x3f819792	1.012438
19	0xbfb607c0	-1.4221115
20	0x3e1b080d	0.1513979
21	0xbe9d229d	-0.3069047
22	0x3ef12330	0.47097158
23	0xc0390c67	-2.891382
24	0x3cbc8f63	0.02301759
25	0xbf21ad43	-0.63155
26	0x3e92730a	0.28603393
27	0x3ee42808	0.4456179
28	0xbf43199e	-0.76210964
29	0xbfa19be0	-1.2625694
30	0x3e90bcf0	0.28269148
31	0xbe06d5b1	-0.13167454
32	0xc0784aff	-3.8795774
33	0xbfd34ca6	-1.6507766
34	0x3faa7f7c	1.3320155
35	0xbe8c915b	-0.27454647
36	0xbeb733ac	-0.3578161
37	0x3f4c32c5	0.7976497
38	0xbe43225b	-0.19056074
39	0xbde6fa72	-0.112782374
40	0xbc9c9b82	-0.01911712
41	0x3f325bda	0.69671404
42	0xc0776df1	-3.8660853
43	0xbf43ab52	-0.7643329
44	0xc0338989	-2.8052695
45	0x3f6b36f9	0.91880757
46	0x40297730	2.6478996
47	0x400c77ab	2.194804
48	0xbf5500a5	-0.8320411
49	0x3d3bdfcd	0.04586773
50	0xc01c51bb	-2.4424884
51	0xbeb8d0c6	-0.36096781
52	0x3f3afc13	0.73040885
53	0xbfbfdb35	-1.4988772
54	0x3faf744b	1.3707365
55	0xc0017a6d	-2.0230973
56	0x3f9290b0	1.1450405
57	0x3f6d98b8	0.92811155
58	0x3f559582	0.83431256
59	0x3e3ffc66	0.18748626
60	0x3ea6d21e	0.32582182
61	0xbd14f9c4	-0.036371008
62	0xc0779118	-3.8682308
63	0x3ee048af	0.43805453
64	0xbe6dcb92	-0.23222187
65	0xc0203526	-2.503244
66	0x3f32dac8	0.69865084
67	0x3faf5c63	1.3700069
68	0xbd5a8c3b	-0.05335639
69	0xbf6c3ca1	-0.9228001
70	0xbf766a75	-0.9625619
71	0xbfb25690	-1.3932667
72	0x3dc99761	0.09843326
73	0x3ead6ac9	0.33870533
74	0xc1ec28a0	-29.519836
75	0xc151eeb4	-13.120777
76	0xc21de9ce	-39.478325
77	0x3ef39de5	0.475814
78	0xc0f579dd	-7.671126
79	0x3f9724e4	1.1808133
80	0xbf3abdbf	-0.7294578
81	0xbf85b264	-1.0445065
82	0x3fda474e	1.705301
83	0x3ecb1d6c	0.39670885
84	0x3f9900c6	1.1953361
85	0xbecc8575	-0.3994557
86	0xbe3836b3	-0.17989616
87	0xc0c9a7eb	-6.301748
88	0x3fc84cdf	1.5648459
89	0xc0b7e4b0	-5.746666
90	0x3e894d33	0.2681671
91	0xbe936c0e	-0.28793377
92	0x3f86807a	1.0507958
93	0xc1018ff9	-8.09765
94	0xc06d7189	-3.7100546
95	0xbfe4363f	-1.7829055
96	0x4017cc45	2.3718426
97	0xc18e85db	-17.81536
98	0xc12fd41b	-10.989284
99	0x3f52de72	0.82370675
100	0x40437852	3.0542188
101	0xc0c34019	-6.1015744
102	0x3ec1462a	0.37748843
103	0xbd6c44da	-0.05768285
104	0x40774d99	3.8641112
105	0x40a1cd94	5.056345
106	0xc1df1387	-27.884535
107	0xc167f01a	-14.496119
108	0xc0c7c448	-6.24271
109	0xc0758653	-3.8363235
110	0xc0c6d620	-6.2136383
111	0x40521c0c	3.2829618
112	0x4014bf16	2.324163
113	0x40a93014	5.287119
114	0x40bdef33	5.935449
115	0x40854ba3	4.165483
116	0x40554bf5	3.332761
117	0x4001a0ca	2.0254388
118	0xc0d13af1	-6.538445
119	0xc1a2182f	-20.261808
120	0xc10d7c38	-8.842827
121	0xc0fda9dd	-7.9269853
122	0x400123c2	2.0178075
123	0x4045e05d	3.091819
124	0xbf44a1ba	-0.76809275
125	0x3f58e69e	0.84726894
126	0xc0d9bda3	-6.804399
127	0xc091b163	-4.5529037
128	0xc031188d	-2.7671235
129	0xbeab6b81	-0.33480456
130	0x3ffd0d6b	1.976972
131	0x3f78d647	0.9720196
132	0xc092e228	-4.590107
133	0xc0df02bb	-6.9690833
134	0x3f15df97	0.58544296
135	0xbd1d3cbf	-0.03838801
136	0xc09c1df5	-4.878657
137	0x3f422705	0.7584079
138	0x40006cc1	2.0066378
139	0xbbb409c2	-0.0054943273
140	0x40a6f75f	5.2176967
141	0x3f9113b2	1.1334136
142	0xc03b2fea	-2.9247994
143	0x3e8989ee	0.26863045
144	0xc03902a7	-2.890787
145	0xbf2a50a3	-0.6652929
146	0xc0b10555	-5.531901
147	0x3f6a3cde	0.91499126
148	0x3f2cc9a9	0.6749521
149	0xc06619eb	-3.595332
150	0x3f15f345	0.58574325
151	0x3f8ba6ce	1.091028
152	0xbfb8abd2	-1.4427435
153	0xbf6a536b	-0.91533536
154	0xc02000e5	-2.5000546
155	0x3e8ae371	0.2712665
156	0x3d34cf32	0.04414291
157	0xc0169b59	-2.3532317
158	0xc0dd8c2e	-6.923362
159	0xc0b61bfe	-5.690917
160	0xbf6c7d64	-0.9237883
161	0x3f0603b3	0.52349395
162	0x3e349959	0.17636622
163	0xbf8b7837	-1.0896062
164	0x3e884dbf	0.26621816
165	0xbf13b357	-0.57695526
166	0x3f943573	1.1578811
167	0xbf978463	-1.1837276
168	0xbd01bf0d	-0.03167634
169	0x3c5e26d0	0.013559058
170	0xc0d7a39d	-6.7387223
171	0xc05d82cc	-3.4611082
172	0xc1b2e2fe	-22.360836
173	0xbf3fce2d	-0.74923974
174	0xbfb99a74	-1.450026
175	0xbee3feed	-0.4453043
176	0xbf9c7c4a	-1.222543
177	0xbf287358	-0.65801
178	0x3e62070e	0.22073004
179	0xbf612f58	-0.87962866
180	0xbfbd0da1	-1.4769784
181	0x4002c5e5	2.0433285
182	0xbf9d1835	-1.2273012
183	0xbfbb3e8f	-1.4628466
184	0x3dfbf755	0.12303034
185	0xbda35c87	-0.079766326
186	0xbf4a3ddb	-0.79000634
187	0xbeba5c7f	-0.36398694
188	0xbec43fe7	-0.38330004
189	0xc05728ca	-3.3618646
190	0x3fed62ae	1.854574
191	0xbfaa828e	-1.3321092
192	0xbfaeec72	-1.3665907
193	0xbe80a516	-0.2512595
194	0xbf887246	-1.0659873
195	0x3e4e769f	0.20162438
196	0x3c79744a	0.015225479
197	0x3fa66138	1.2998419
198	0x3b7d9f71	0.003869977
199	0xc0212b0b	-2.5182521
200	0x3fa7e32d	1.3116204
201	0x3f43c27a	0.7646862
202	0xc0d71a41	-6.721955
203	0x3f9da77b	1.2316736
204	0xc13dcc9b	-11.8624525
205	0x400e723b	2.225722
206	0xbfa67912	-1.3005698
207	0x3ff66484	1.9249425
208	0x3e9301fb	0.28712448
209	0xbf2c79a1	-0.6737309
210	0x3ecc86e4	0.39946663
211	0x3e230a5f	0.15921925
212	0x401db6c3	2.46428
213	0x3f5a1f07	0.85203594
214	0x4020edac	2.5145063
215	0x4053500c	3.3017607
216	0x40008cf5	2.0086033
217	0x4001eb5e	2.0299907
218	0x40380e87	2.8758867
219	0x3fcdb279	1.607009
220	0xbfe7e76c	-1.8117499
221	0xc01b3132	-2.4248776
222	0xbfcf318a	-1.6186993
223	0x3f6379b8	0.88857603
224	0xbec63cc1	-0.38718227
225	0xc078c22a	-3.8868508
226	0x3dac0749	0.08399827
227	0xbd4694f8	-0.04848191
228	0x3f1205e2	0.57040226
229	0xbedc583d	-0.4303607
230	0xbfb4624e	-1.40925
231	0xc0073e08	-2.113161
232	0x3f1c6dbb	0.61104935
233	0x3f9d61d9	1.2295486
234	0xc169c72c	-14.611126
235	0xc03774c7	-2.8665025
236	0xc2000627	-32.00601
237	0x4009c19c	2.152442
238	0xc0f33dd0	-7.6012955
239	0x3f9f95b6	1.2467563
240	0xbf9af660	-1.2106438
241	0xc04f5725	-3.2396939
242	0x3fe24e34	1.7680116
243	0xbfb525f3	-1.4152206
244	0x3fb2a9d3	1.3958076
245	0xbd13ccf2	-0.036084123
246	0x3fe0e766	1.7570617
247	0xc06b527e	-3.67691
248	0x403e3092	2.9717145
249	0x3eef9113	0.4679037
250	0xbf2adaf2	-0.66740334
251	0x3fb2bfd4	1.3964791
252	0x3ece06d3	0.4023958
253	0xc08843ac	-4.2582607
254	0x3ec24ea6	0.3795063
255	0xbf61e8cf	-0.8824586

fc2.bias f4 [32]
0	0xbe08de3a	-0.13366023
1	0x3e634ddc	0.2219767
2	0x3ee45eee	0.44603676
3	0x40466034	3.0996218
4	0x3e3b6be5	0.18302877
5	0xbe9b55d1	-0.3033891
6	0x3f505491	0.8137904
7	0x3f76bfa8	0.96386194
8	0x3e92c31a	0.28664476
9	0x3e3d34d3	0.18477182
10	0xbf2314e2	-0.6370374
11	0x3f89a0c6	1.0752189
12	0xbd220978	-0.03955981
13	0x3fabc825	1.3420454
14	0x3e6a13c2	0.228591
15	0x3d6e61db	0.05819879
16	0x3cc892e7	0.024484111
17	0x3f8e4bd6	1.1116893
18	0x400fc57e	2.246429
19	0x3f3f38d6	0.746961
20	0x3f55a1a2	0.8344976
21	0x40197547	2.397783
22	0x3fbfdb67	1.4988831
23	0x3fb35d74	1.4012895
24	0x3f80e86b	1.0070928
25	0x3f392262	0.7231809
26	0x3c0ca509	0.008584269
27	0xbf355490	-0.7083216
28	0x3e80aed3	0.2513338
29	0x3e68e053	0.22741823
30	0x3e7f1188	0.24909031
31	0xbf5868f6	-0.8453516

fc3.weight f4 [2, 32]
0	0x406c89ea	3.6959176
1	0x411aff4b	9.687327
2	0x3fa51bbc	1.2899089
3	0xc06f39f1	-3.7379115
4	0xc09c1f13	-4.8787932
5	0x40879eae	4.23812
6	0xc02ed03b	-2.7314594
7	0x409c82f3	4.890985
8	0x4107f245	8.496648
9	0x40e84530	7.2584457
10	0xbe6cfa3b	-0.2314233
11	0x40cb5a1b	6.354749
12	0x3f940c8c	1.1566329
13	0xbf62e498	-0.88630056
14	0xbf5ebe63	-0.8700926
15	0xbf64fc27	-0.89447254
16	0x4129aec1	10.605165
17	0x41255550	10.333328
18	0xbf08fac9	-0.5350767
19	0x40e584f9	7.172482
20	0xc14202b2	-12.125658
21	0xc105b7c4	-8.357365
22	0x404ced01	3.2019656
23	0x4102d4ba	8.176935
24	0xc0223b3b	-2.5348651
25	0x40f6db5a	7.7142763
26	0x41469c36	12.413137
27	0x40e32aed	7.09899
28	0x400c64dd	2.1936562
29	0x40048327	2.070505
30	0x411aa2af	9.664718
31	0xc03391f1	-2.8057826
32	0x3ffc9c10	1.9735126
33	0x4119f61a	9.622583
34	0x411285c5	9.157659
35	0xc11afe42	-9.687075
36	0xc0bf1231	-5.9709706
37	0x40bc5365	5.88518
38	0xc06cd89f	-3.7007215
39	0x40de8070	6.9531784
40	0x3fdde015	1.733401
41	0xbfdb2ec8	-1.7123652
42	0xc1a8ffc0	-21.124878
43	0x40bcb5cb	5.8971915
44	0xbede1b44	-0.43380177
45	0x3fd2cd8a	1.6468976
46	0xc02e9c09	-2.7282736
47	0xbf19336a	-0.59844077
48	0x410e818a	8.906626
49	0x412a145d	10.6299715
50	0xc0ade6e2	-5.434434
51	0x4110eb1d	9.057401
52	0xc13bf44f	-11.747146
53	0xbe389832	-0.18026808
54	0x400c93a6	2.1965117
55	0x40ceba0b	6.4602103
56	0xc04cc450	-3.199482
57	0x41030d32	8.1907215
58	0x4148c08d	12.547009
59	0x40abd0c7	5.3692355
60	0x3ffefdb3	1.9921173
61	0x3fb7e0b6	1.4365451
62	0x41064649	8.392159
63	0xc04c4cac	-3.1921797

fc3.bias f4 [2]
0	0xbfe2dfb9	-1.7724525
1	0x3f740ba8	0.95330286
