output/2023-12-24_19-17-29/model/CartPole-v1_dqn_20000_2023-12-24_19-17-29.pth (torch, 8220 bytes, 6 tensors)

fc1.weight f4 [32, 4]
-0.109001756 0.08041354 -8.19273 -0.15418735 0.011944411 -0.0021169074 -2.3620775 -0.25184765
0.5177206 -0.5064445 -0.27097535 -0.15280299 0.16741677 0.069297984 8.154 0.720692
-0.029621935 0.07140972 -19.080654 -1.0215303 -0.521314 0.07280755 -3.4958544 -0.31039676
0.083714806 -6.355536e-05 14.239513 1.4952356 -0.08765168 0.2487142 0.74898005 0.3818286
-0.009994573 0.0025299052 7.737837 0.8637205 0.09834805 0.4383219 -0.46506757 0.48447633
0.0015525843 0.006846084 -8.09133 -0.83949685 -0.09682224 0.34820408 1.7874964 0.24172737
-0.0006973182 -0.024166433 10.266989 1.1899189 -0.1129796 -0.07556416 -4.788785 -0.52457386
0.0035295463 0.04841138 8.169472 1.0115817 -0.07254551 -0.12995578 1.5472212 0.4446056
0.13233404 -0.024110965 -6.3769903 -1.1447374 0.050937388 0.48171696 2.5217211 0.6622951
-0.38405964 -0.2381602 5.5511336 -0.7138456 0.851097 0.023256438 -14.728962 -0.043909293
1.2099466 0.86656934 0.993073 0.47890666 0.5021352 -0.5906692 1.0563568 -0.30764586
0.07706401 -0.28054094 6.42686 -0.12372426 -0.38937423 -0.29580164 -2.9400706 -0.42702413
-0.062932715 -0.021524131 -8.354885 -0.9692252 -0.418501 -0.7647583 -1.6678163 -0.7313184
-0.4552231 0.288985 7.9759026 -0.25366554 0.021355182 -0.037609678 9.35147 0.47795364
-0.102915116 0.16160358 -10.019734 -0.60448563 -0.7103016 0.15402311 0.67014015 0.3071849
-0.75782377 -0.3220337 -2.5045242 -0.38823712 0.5156954 0.31846347 1.6705062 0.66737014
00000000: 503c dfbd dbaf a43d 6c15 03c1 4ae3 1dbe
00000010: 7eb2 433c d0bb 0abb 472c 17c0 2df2 80be
00000020: 5689 043f 59a6 01bf 48bd 8abe 6378 1cbe
00000030: 4d6f 2b3e 1aec 8d3d c976 0241 457f 383f
00000040: b3a9 f2bc 423f 923d 2ea5 98c1 81c1 82bf
00000050: d674 05bf 201c 953d 14bc 5fc0 53ec 9ebe
00000060: ab72 ab3d 0649 85b8 0cd5 6341 e163 bf3f
00000070: b982 b3bd efae 7e3e 28bd 3f3f 0a7f c33e
00000080: 47c0 23bc c4cc 253b 5c9c f740 c91c 5d3f
00000090: b46a c93d ba6b e03e 561d eebe 480d f83e
000000a0: 1680 cb3a 1d55 e03b 1676 01c1 44e9 56bf
000000b0: bd4a c6bd ce47 b23e afcc e43f 6187 773e
000000c0: 3bcc 36ba aff8 c5bc 9645 2441 434f 983f
000000d0: d961 e7bd 62c1 9abd ba3d 99c0 794a 06bf
000000e0: f64f 673b 034b 463d 28b6 0241 827b 813f
000000f0: be92 94bd 2113 05be 580b c63f 58a3 e33e
00000100: 9382 073e 5c84 c5bc 4e10 ccc0 c186 92bf
00000110: b9a3 503d 9ba3 f63e e163 2140 2c8c 293f
00000120: 77a3 c4be 44e0 73be e3a2 b140 96be 36bf
00000130: 7ee1 593f 4984 be3c d4a9 6bc1 3bda 33bd
00000140: 88df 9a3f 7dd7 5d3f 083a 7e3f 4133 f53e
00000150: ef8b 003f 1936 17bf b336 873f c283 9dbe
00000160: bcd3 9d3d 10a3 8fbe d6a8 cd40 2563 fdbd
00000170: 0f5c c7be 5073 97be 1e2a 3cc0 e8a2 dabe
00000180: dee2 80bd 6053 b0bc 9cad 05c1 251f 78bf
00000190: c345 d6be 33c7 43bf 017b d5bf af37 3bbf
000001a0: 0113 e9be d8f5 933e 983a ff40 73e0 81be
000001b0: 10f1 ae3c 9b0c 1abd 9f9f 1541 57b6 f43e
000001c0: 29c5 d2bd 697b 253e d550 20c1 92bf 1abf
000001d0: 53d6 35bf 3cb8 1d3e 4e8e 2b3f 5747 9d3e
000001e0: bd00 42bf 9ae1 a4be 204a 20c0 04c7 c6be
000001f0: 9d04 043f a50d a33e 26d3 d53f c5d8 2a3f

fc1.bias f4 [32]
1.7277101 0.52973247 -0.062183555 1.3638868 4.219325 -2.1059713 3.8162465 -1.0737495
-1.5555147 0.7840057 -1.5591375 -1.4733485 -2.599377 -1.1120423 -2.2477286 -1.3927435
3.4111898 1.9169673 6.0368805 4.8981905 1.9610804 1.1846864 1.6730503 0.8439237
-2.0813131 -1.0172217 3.0106745 -1.779058 2.377762 -2.1904042 0.39262697 0.98702466
00000000: 9b25 dd3f 8c9c 073f 2fb4 7ebd d893 ae3f
00000010: b604 8740 3cc8 06c0 623d 7440 a070 89bf
00000020: 1b1b c7bf 99b4 483f d191 c7bf af96 bcbf
00000030: 315c 26c0 6757 8ebf c9da 0fc0 6b45 b2bf
00000040: ef50 5a40 2f5f f53f 202e c140 fabd 9c40
00000050: af04 fb3f cea3 973f 8326 d63f 620b 583f
00000060: 3c34 05c0 5234 82bf e4ae 4040 2cb8 e3bf
00000070: 412d 1840 952f 0cc0 6706 c93e a6ad 7c3f

fc2.weight f4 [32, 32]
-1.0126745 -1.5509168 5.0019894 -4.2357197 0.92891085 -0.84235305 5.5238857 -2.9263322
-4.7136264 3.1663523 -9.289744 2.02219 3.0454125 7.7460694 -2.7064972 5.905356
-1.9938408 4.6991353 6.356853 3.6800163 -2.7920377 5.151264 1.8357824 5.0447273
-62.888268 4.5285873 8.237073 -4.654762 -0.21734306 -5.403939 1.4567562 5.305721
-0.85876155 -2.0659406 0.9846072 -1.5299261 -11.369221 0.3260106 -1.6399633 0.05316963
0.23501706 -0.13091847 0.96082 0.7042451 0.80538714 -0.5709786 -0.20894223 2.5747647
-0.32439092 0.3987325 0.88241714 0.65611064 -0.047315974 0.12982738 -10.934664 0.19608346
-0.6137501 0.917878 0.15327694 -1.7151185 -19.69456 -7.9343486 0.33716092 0.27041778
4.6477737 -2.7726185 2.0093873 -2.8569565 -4.380386 2.01505 0.25449422 -3.015028
0.24620989 0.569875 -22.50886 0.7245019 -28.8511 4.585677 -29.2235 0.16652039
-0.24404936 1.628436 0.9201991 2.4613693 -0.6688379 1.4543014 0.25215253 0.86412567
-28.588303 0.28157613 0.9757887 -26.119833 -0.5950302 2.591321 0.50405645 1.089629
0.03565736 0.111698136 -0.08087095 -0.122337855 -0.14638658 -0.022174425 -0.0018632157 -0.049033448
0.029163828 0.10916586 -0.17176637 -0.11163354 -0.15950967 -0.1750574 0.075370155 -0.009349245
0.10991789 0.052512337 -0.17095335 -0.090318896 -0.0071340688 0.019360319 0.05535167 -0.017221004
0.020069946 0.06883775 -0.15650228 0.15617862 -0.036087323 -0.13101484 -0.1822559 -0.17888758
1.9182738 -1.6993369 0.71068543 3.9025111 -1.3990948 -0.08759363 -12.413377 -2.1073542
-0.7857965 -2.9643626 -1.8664393 -0.74810904 0.9820961 0.033730738 -0.80016255 -1.725969
1.1490921 -0.22359669 -0.42943546 -1.5010194 -1.283122 -0.7828321 3.7843957 2.7994707
-0.56765604 0.2534981 -5.8367023 2.0954216 0.22053246 3.4427793 -0.58772653 -0.08119385
-4.207222 3.5574968 0.23995475 -5.7432256 -2.275233 0.7602204 -3.174367 -3.1783075
-3.2191746 3.6027977 -1.6064811 0.33072814 -8.881952 1.1666024 0.34518933 4.721604
-0.2453243 0.52667975 -0.25541326 1.4225197 0.25776038 -0.77218205 -0.37703648 1.0531474
-2.557334 0.9158658 1.1962016 0.2707239 -1.0171556 -4.73179 0.8597948 0.4883542
-0.6197961 3.8957398 -6.7990913 -2.4714363 2.2486 0.9500082 1.2093275 -1.9639724
-0.76225954 -0.7339969 -0.76351094 0.51221526 -4.0019937 0.72796017 0.6814937 -1.1348872
-1.12256 0.64640594 -10.473598 -9.360309 -3.6746294 0.36707065 0.88138527 -2.7865775
2.9574695 0.4611686 0.24478452 -5.3585086 1.180229 1.4742012 0.48446053 0.4823251
-3.816096 -12.674276 0.60416824 -3.9373379 -16.571285 2.138115 0.39757144 -0.8337067
-2.3885367 -2.9505274 -2.3136392 3.8797314 -1.5549958 -2.4589703 1.8505031 -1.2684448
-4.1089706 0.39425582 1.6687311 -1.1761435 -5.9012294 1.0968597 -3.7512898 -0.022166027
-10.339866 0.8903885 3.2492404 -5.452038 -4.080916 -1.8780471 1.7598871 -1.0062064
00000000: 519f 81bf 7184 c6bf 4c10 a040 048b 87c0
00000010: 1acd 6d3f 73a4 57bf acc3 b040 0749 3bc0
00000020: 07d6 96c0 84a5 4a40 cba2 14c1 906b 0140
00000030: 0ae8 4240 cddf f740 4037 2dc0 adf8 bc40
00000040: 2d36 ffbf 515f 9640 576b cb40 6385 6b40
00000050: bfb0 32c0 28d7 a440 ebfa ea3f 686e a140
00000060: 968d 7bc2 30ea 9040 0dcb 0341 cff3 94c0
00000070: 2e8f 5ebe 11ed acc0 fd76 ba3f 77c8 a940
00000080: ccd7 5bbf 5f38 04c0 380f 7c3f 9ed4 c3bf
00000090: 54e8 35c1 ddea a63e 51ea d1bf 66c8 593d
000000a0: 50a8 703e 7e0f 06be 4df8 753f 6849 343f
000000b0: da2d 4e3f a72b 12bf f4f4 55be f2c8 2440
000000c0: 9116 a6be ab26 cc3e 17e6 613f def6 273f
000000d0: 65ce 41bd 78f1 043e 62f4 2ec1 1aca 483e
000000e0: ba1e 1dbf 0dfa 6a3f a1f4 1c3e 0189 dbbf
000000f0: 758e 9dc1 2fe6 fdc0 5ba0 ac3e 3374 8a3e
00000100: 90ba 9440 9572 31c0 cd99 0040 60d8 36c0
00000110: 1f2c 8cc0 94f6 0040 114d 823e 38f6 40c0
00000120: 721e 7c3e 54e3 113f 2512 b4c1 f578 393f
00000130: 0ecf e6c1 debd 9240 bac9 e9c1 5284 2a3e
00000140: 13e8 79be 9770 d03f 2b92 6b3f 1387 1d40
00000150: f638 2bbf 8c26 ba3f 231a 813e 5737 5d3f
00000160: d8b4 e4c1 bf2a 903e 4acd 793f 6bf5 d0c1
00000170: e653 18bf 34d8 2540 d809 013f f778 8b3f
00000180: 740d 123d fec1 e43d ab9f a5bd 458c fabd
00000190: 5de6 15be 24a7 b5bc 2537 f4ba 4cd7 48bd
000001a0: fbe8 ee3c 5a92 df3d 86e3 2fbe 20a0 e4bd
000001b0: 8156 23be 3f42 33be ab5b 9a3d 932d 19bc
000001c0: a11c e13d 2d17 573d 650e 2fbe 1df9 b8bd
000001d0: e8c4 e9bb 8899 9e3c 6fb8 623d 1013 8dbc
000001e0: ba69 a43c cefa 8c3d 2242 20be 4aed 1f3e
000001f0: 4dd0 13bd c128 06be 4aa1 3abe 4e2e 37be
00000200: ff89 f53f df83 d9bf 7bef 353f bec2 7940
00000210: 8a15 b3bf 4a64 b3bd 319d 46c1 e4de 06c0
00000220: f629 49bf 1eb8 3dc0 7ce7 eebf 1384 3fbf
00000230: a66a 7b3f 3e29 0a3d 74d7 4cbf 8dec dcbf
00000240: 7315 933f 88f6 64be f7de dbbe 6721 c0bf
00000250: 573d a4bf af67 48bf 8a33 7240 872a 3340
00000260: e851 11bf 81ca 813e 44c6 bac0 631b 0640
00000270: 43d3 613e 7f56 5c40 3f75 16bf f648 a6bd
00000280: 90a1 86c0 07ae 6340 b3b6 753e 81c8 b7c0
00000290: 6b9d 11c0 ce9d 423f d428 4bc0 6469 4bc0
000002a0: f506 4ec0 3d94 6640 2ca1 cdbf 3355 a93e
000002b0: 7a1c 0ec1 3a53 953f a8bc b03e 6117 9740
000002c0: 4b36 7bbe 7cd4 063f 87c5 82be 2015 b63f
000002d0: 2bf9 833e b9ad 45bf ed0a c1be 89cd 863f
000002e0: 5cab 23c0 2e76 6a3f 221d 993f 539c 8a3e
000002f0: 2832 82bf d36a 97c0 831b 5c3f 9009 fa3e
00000300: f5aa 1ebf cd53 7940 2892 d9c0 032c 1ec0
00000310: 10e9 0f40 bd33 733f 3ecb 9a3f 7363 fbbf
00000320: 7123 43bf 39e7 3bbf 7475 43bf 8a20 033f
00000330: 5510 80c0 995b 3a3f 5f76 2e3f fc43 91bf
00000340: 0cb0 8fbf dc7a 253f db93 27c1 d3c3 15c1
00000350: 212d 6bc0 aff0 bb3e 77a2 613f 4957 32c0
00000360: 2e47 3d40 4a1e ec3e cba8 7a3e e778 abc0
00000370: be11 973f a0b2 bc3f 360b f83e 51f3 f63e
00000380: eb3a 74c0 d6c9 4ac1 c5aa 1a3f 58fd 7bc0
00000390: fe91 84c1 e0d6 0840 7c8e cb3e cd6d 55bf
000003a0: c9dd 18c0 71d5 3cc0 aa12 14c0 854d 7840
000003b0: 1a0a c7bf c55f 1dc0 49dd ec3f 665c a2bf
000003c0: b07c 83c0 e6db c93e fb98 d53f df8b 96bf
000003d0: dfd6 bcc0 e665 8c3f 2215 70c0 8795 b5bc
000003e0: 1770 25c1 80f0 633f 8ef3 4f40 1877 aec0
000003f0: dd96 82c0 d963 f0bf fb43 e13f 5fcb 80bf

fc2.bias f4 [32]
3.4956102 0.5232106 0.8629091 -0.07625644 1.4420217 -0.32196864 -0.22314061 -0.27298072
3.303618 1.4249302 4.3652496 1.5740228 2.912508 0.061191052 0.7117927 0.64989704
0.55182797 0.7365986 3.2039263 2.258428 0.83925253 0.1422185 0.041689377 -0.055413652
0.09558736 3.0054333 -0.8764918 0.5145652 2.1805384 -0.90062255 -2.5503936 3.2022705
00000000: 14b8 5f40 21f1 053f 9ce7 5c3f 562c 9cbd
00000010: 2b94 b83f 13d9 a4be f97e 64be 21c4 8bbe
00000020: 7a6e 5340 1d64 b63f 20b0 8b40 9479 c93f
00000030: 8866 3a40 78a3 7a3d 0c38 363f a75f 263f
00000040: 9944 0d3f ba91 3c3f 210d 4d40 168a 1040
00000050: 41d9 563f baa1 113e 7bc2 2a3d 6df9 62bd
00000060: 4ec3 c33d 0559 4040 c461 60bf 8cba 033f
00000070: f18d 0b40 338f 66bf a639 23c0 00f2 4c40

fc3.weight f4 [2, 32]
1.4409504 -11.041695 2.3515809 -0.12045789 -13.996006 10.207367 -5.4876847 -1.9834071
-3.067863 -5.9916615 -5.4708343 -5.591276 -13.392572 12.759379 8.016675 -2.1402879
-1.3601246 6.6938195 -6.035135 0.86711425 -3.2136123 2.7159653 -0.17161784 -1.9673618
-1.728737 -8.457137 7.1640797 0.6107446 -9.533548 10.573686 10.272497 -21.831118
1.0875379 9.540781 13.401605 0.002473951 -6.1547875 9.669844 -2.167662 4.6646304
-4.3003283 -7.8088984 -9.941915 -3.3874419 -10.348677 4.601892 7.767126 -2.9823854
-1.7955933 -20.266775 -2.292434 0.41065237 -1.3619813 -13.068545 -0.049044605 -0.12472589
-2.3274128 -6.0725036 10.011183 -5.7629013 -5.3401117 7.7889204 -0.9161564 -4.451329
00000000: 1071 b83f c8aa 30c1 4d80 1640 a0b2 f6bd
00000010: a4ef 5fc1 6051 2341 1d9b afc0 49e0 fdbf
00000020: de57 44c0 b1bb bfc0 1311 afc0 bceb b2c0
00000030: fa47 56c1 6b26 4c41 4d44 0041 7afa 08c0
00000040: 9018 aebf c533 d640 d31f c1c0 33fb 5d3f
00000050: d3ab 4dc0 60d2 2d40 96bc 2fbe 83d2 fbbf
00000060: 4147 ddbf 6f50 07c1 2440 e540 c259 1c3f
00000070: 6a89 18c1 d12d 2941 265c 2441 21a6 aec1
00000080: 7134 8b3f 0aa7 1841 f96c 5641 0322 223b
00000090: 05f4 c4c0 aeb7 1a41 f9ba 0ac0 a744 9540
000000a0: 4a9c 89c0 7fe2 f9c0 1512 1fc1 d9cb 58c0
000000b0: 2e94 25c1 b342 9340 4c8c f840 67df 3ec0
000000c0: 00d6 e5bf 5b22 a2c1 3db7 12c0 0741 d23e
000000d0: 6755 aebf c318 51c1 ffe2 48bd 4a70 ffbd
000000e0: 55f4 14c0 f351 c2c0 ce2d 2041 b069 b8c0
000000f0: 32e2 aac0 d63e f940 3a89 6abf 4a71 8ec0

fc3.bias f4 [2]
-7.41381 -1.687577
00000000: ee3d edc0 8602 d8bf
